samples/overall.safetensors (safetensors, 702 bytes, 5 tensors)

d f8 [6]
00000000: 0000 0000 0000 08c0 0000 0000 0000 00c0
00000010: 0000 0000 0000 f0bf 0000 0000 0000 0000
00000020: 0000 0000 0000 f03f 0000 0000 0000 0040
-3.0 -2.0 -1.0 0.0 1.0 2.0

e f2 [6]
00000000: 00c2 00c0 00bc 0000 003c 0040
-3.0 -2.0 -1.0 0.0 1.0 2.0

f f4 [6]
00000000: 0000 40c0 0000 00c0 0000 80bf 0000 0000
00000010: 0000 803f 0000 0040
-3.0 -2.0 -1.0 0.0 1.0 2.0

h i2 [6]
00000000: fdff feff ffff 0000 0100 0200
-3 -2 -1 0 1 2

i i4 [6]
00000000: fdff ffff feff ffff ffff ffff 0000 0000
00000010: 0100 0000 0200 0000
-3 -2 -1 0 1 2
